data.pth (torch, 7402 bytes, 6 tensors)

l1.weight f4 [8, 94]
000000 4e 34 01 3e 90 1f e2 bd 4c 02 bb bc 23 fc ba be
       0.12617609 -0.11041176 -0.022828244 -0.3652049
000010 62 5f 5f bd 9b 99 69 bd 24 61 0f 3f 7d 45 1e 3d
       -0.054534324 -0.057031255 0.560076 0.038640488
000020 2a cf 65 3e 68 7b 21 be f2 96 96 3d eb a8 a5 be
       0.22442308 -0.15769732 0.07353009 -0.32355437
000030 18 44 e1 be 01 c3 aa 3e a1 0d 40 3f 8f a3 5d bc
       -0.43997264 0.333519 0.75020796 -0.013527765
000040 06 ea ce 3e d2 3d 8c 3d 57 33 8c 3f 41 12 da be
       0.4041292 0.06847729 1.0953168 -0.42592052
000050 05 f7 2b be ee b6 06 3f ca a2 94 3e 60 96 7b bd
       -0.16793449 0.5262288 0.29030448 -0.061422706
000060 c2 11 ad be 71 2c dc 3e 65 c1 8c bd f3 ff fe 3d
       -0.3380261 0.43002656 -0.068728246 0.12451162
000070 d5 00 64 be 0d 1c da 3e 4f d9 dd bd ca 37 05 3f
       -0.22265942 0.42599526 -0.10832464 0.5203825
000080 4f 02 3f 3f d9 62 22 3f 1f 78 f0 bd ac 7d 1a 3f
       0.746129 0.6343208 -0.11741661 0.6034801
000090 a2 35 76 be 12 5f 5f 3d a8 c7 97 bd 0a fb 41 3f
       -0.24043897 0.054534025 -0.07411128 0.7577368
0000a0 90 82 61 3e 7b b2 bf 3d dd 94 30 3f a6 d0 1a 3f
       0.22022462 0.09360214 0.6897715 0.6047462
0000b0 c9 5e ac bd 58 df c4 bd 51 19 18 3e fc 20 d2 be
       -0.08416516 -0.09612912 0.14853407 -0.4104079
0000c0 ee 58 63 3e 0b 14 1d 3e c6 6d 18 3f 99 ee 98 bd
       0.22201893 0.15339677 0.595425 -0.07467384
0000d0 01 60 ad 3a 61 ff d9 3d bd dd f3 3e f5 ca 8d be
       0.0013227464 0.10644413 0.4763011 -0.27693906
0000e0 90 dc 95 be 41 21 8e 3f 0f fc 8e 3b 5e af e3 3e
       -0.29269838 1.1103898 0.004363544 0.44469732
0000f0 6d ab e9 3d 26 89 d0 be bc 9d 5b be bc 2e eb be
       0.1140965 -0.40729636 -0.2144689 -0.45934093
000100 b8 b3 0f bf c6 f3 13 3f 1c 51 96 be 91 d1 b4 3e
       -0.56133604 0.57793844 -0.29358757 0.35316136
000110 d0 87 25 bf 9c 0f 16 bc a7 7c 24 be 76 de 09 3d
       -0.6466036 -0.009158995 -0.16063176 0.03365942
000120 1b 29 44 3e f5 22 fa 3c 2c 96 d5 bd fc 4d 08 3e
       0.19156305 0.030534247 -0.10429034 0.13310999
000130 dd 53 4d be 16 44 9e 3d 9a d9 01 3e 35 04 1e 3f
       -0.20051523 0.0772783 0.12680665 0.6172517
000140 fd 98 fa bb be 43 2a 3e 61 8c 1b 3e 24 a1 94 be
       -0.007647632 0.16627404 0.15190269 -0.2902919
000150 ee 28 2e 3e 19 cb 11 be e3 f4 89 be 94 96 72 be
       0.17007801 -0.14237632 -0.26944646 -0.23690253
000160 3e b6 8c bd b4 4e b0 bc 53 f2 1e 3c e9 93 db 3e
       -0.068706974 -0.021521904 0.009701329 0.42886284
000170 19 17 6a 3e 4e 1a 34 3f 45 ab 82 3e d2 1d 21 3f
       0.22860374 0.7035264 0.25521293 0.6293613
000180 cc 76 0e bd d1 3c a1 bd 5c 00 31 3e 3e 96 0a 3f
       -0.034781262 -0.07872928 0.17285293 0.541355
000190 d0 b0 0f 3e 39 62 0e 3e db aa b2 bc 3e 18 c0 bd
       0.14032292 0.13904656 -0.021809986 -0.09379624
0001a0 a2 f0 7b be d5 7d 0b 3f 6e bd 00 3f d8 09 a6 be
       -0.24603513 0.5448888 0.50289047 -0.32429385
0001b0 a2 4c b3 be e1 6b d2 3e e1 6e 92 be 1a be 8f 3e
       -0.35019404 0.4109793 -0.2860022 0.28074723
0001c0 08 3a f0 be 0d ac 02 3f 54 07 ef bd 3c d0 c6 3e
       -0.46919274 0.5104378 -0.116713196 0.38830745
0001d0 37 73 b3 3d 25 57 55 3e a2 5b 0f 3f ac b0 50 be
       0.0876221 0.20834024 0.55999196 -0.20379895
0001e0 a7 b4 3d 3f 89 19 a9 be 1c 4d 79 3d 20 e6 a6 be
       0.7410378 -0.33027294 0.060864553 -0.32597446
0001f0 e3 c2 c0 3d fc c8 e6 3e cb 15 b0 be 0e 4a 17 3f
       0.09412172 0.45075214 -0.34391627 0.59097373
000200 d3 12 24 3f 1b 8b 4e be 04 47 29 be be a1 80 bd
       0.64091223 -0.20170252 -0.16530997 -0.0628085
000210 bb f2 38 3e ed 06 07 3f 3e c3 60 3e a3 11 bc be
       0.18061344 0.5274494 0.21949479 -0.36732206
000220 9d 75 0e 3f 6e 14 24 3f f7 72 13 3f 73 61 02 3f
       0.55648214 0.64093673 0.575973 0.50929946
000230 43 d6 8f 3e e1 f7 2e bf 47 18 91 3e 02 fd 1f bd
       0.28093156 -0.68346983 0.28338835 -0.039059646
000240 58 7e d9 be c3 fc 41 3e ad 24 07 3e 60 41 4a 3e
       -0.42479205 0.18944077 0.13197584 0.19751501
000250 26 0b 50 be da 5a 16 3f 4b 0e 13 be ce 2c 1e bf
       -0.20316753 0.5873238 -0.14360921 -0.61787117
000260 79 ae 53 3e 33 67 4d 3e ab da f1 be e1 ea 1a 3f
       0.20672025 0.20058899 -0.47237143 0.60514647
000270 93 9d 03 3f 16 fd 2f 3f 02 e0 50 3f e7 09 9d be
       0.51412314 0.68745553 0.8159181 -0.30671617
000280 d9 7e c7 bd 7c e8 3a be d0 22 10 3f 8a 73 8b be
       -0.09740991 -0.18252748 0.5630312 -0.27236587
000290 23 61 01 3f e5 f3 9f 3e 67 ac 0b 3e b5 5d c4 be
       0.50538844 0.31240764 0.13639985 -0.38352743
0002a0 93 d9 9f 3e 25 73 c1 3d 0f 44 92 3e 61 91 bf be
       0.31220683 0.0944579 0.2856755 -0.37415603
0002b0 40 d8 ad 3b 3a 8b 0d 3d 71 31 17 be b6 32 ef 3e
       0.00530532 0.034556605 -0.14764954 0.46718377
0002c0 5c ea 26 3e 57 a4 e1 3e 71 d6 d0 3e 28 c2 23 3e
       0.16300339 0.44070694 0.40788606 0.15992033
0002d0 62 92 c8 3e fe 2b da be ea 5a c9 3e 0b 58 90 3e
       0.3917418 -0.42611688 0.39327174 0.2819217
0002e0 ca 04 d3 3d 43 22 88 be 2f c0 6d 3d e1 71 50 be
       0.10303648 -0.2658864 0.05804461 -0.20355941
0002f0 1e 66 70 be 35 26 2f 3f 00 48 13 3f 4d f3 d5 be
       -0.23476455 0.68417674 0.5753174 -0.41787186
000300 a2 c4 1b be e6 d6 c6 3d 7c c4 d2 3e 79 df a8 3e
       -0.15211728 0.097089574 0.4116553 0.32982996
000310 65 de 11 bf 60 2c 5f 3e 39 50 05 3f df 86 46 be
       -0.5697997 0.21794271 0.52075535 -0.19387387
000320 6b 10 12 3f 6d 94 78 3e a1 ee 31 3f 2b 9e 48 3e
       0.570563 0.2427537 0.69504744 0.19591586
000330 f6 48 39 3f a9 4d 86 be 57 d6 1c 3f 13 d9 07 3f
       0.72376955 -0.26231125 0.61264557 0.53065604
000340 9c ff e1 be 4c 18 c1 3e 44 fb 14 3f 3e c3 ef 3e
       -0.44140327 0.3771385 0.581959 0.46828645
000350 f2 84 c8 3e 99 81 9d 3e 77 d2 d9 be ab 70 df 3e
       0.3916393 0.30762938 -0.42543384 0.43640646
000360 73 70 a2 be d2 a0 fd 3e e8 9b a7 be 3a 67 f0 3e
       -0.31726417 0.4953676 -0.32736135 0.46953756
000370 ce e2 54 3f ec 43 2a 3f 4f 70 44 be 7a ac 0a 3f
       0.83158576 0.6650989 -0.19183467 0.5416943
000380 b6 86 bd be d8 6a ef 3e 68 ad 30 bf ef 24 04 3f
       -0.3701684 0.46761203 -0.69014597 0.51618856
000390 f3 57 cb be 65 8c cb 3d 3a 05 23 3f c2 3f 32 3f
       -0.39715537 0.099388875 0.6367985 0.69628537
0003a0 65 4b 20 3e 22 af 8e 3e bc 9d 87 be 2b 02 19 bf
       0.1565376 0.2786799 -0.2648753 -0.59768933
0003b0 9b 2f b3 3e 45 b6 14 bf 78 d0 e0 3e a0 64 65 be
       0.34997258 -0.5809062 0.4390905 -0.22401667
0003c0 97 84 06 3f e2 81 3b be a5 d0 1f 3f 76 c2 4e be
       0.52546066 -0.18311265 0.6242774 -0.20191368
0003d0 12 61 f0 be 28 07 25 3f a9 c9 8d 3e 2e aa dd 3e
       -0.4694906 0.64464045 0.27692917 0.432939
0003e0 86 d0 08 3f fa 93 06 be 98 0d 37 be 09 57 66 be
       0.5344318 -0.13142386 -0.1787628 -0.22494139
0003f0 4c 39 d3 be 05 3b c9 3e ad fe fb be 09 fb b3 3e
       -0.41254652 0.3930284 -0.4921774 0.35152462

l1.bias f4 [8]
000000 7f f3 79 3f 85 47 33 3f 4e 3c 5f 3f 42 32 cc 3e
       0.9763717 0.70031005 0.8720139 0.39882094
000010 0a 07 5a 3f f1 52 80 3f 0d dd 5c 3f dd 64 75 3f
       0.8516699 1.0025312 0.86274797 0.9585703

l2.weight f4 [8, 8]
000000 fd 72 63 bd ec 89 c1 3f 02 8b 90 be b0 9b 16 bf
       -0.055529583 1.5120215 -0.28231055 -0.5883131
000010 ad 1a b5 3f e9 b0 d2 3f c9 66 5a 3f 0d eb d6 be
       1.4148766 1.6460239 0.8531309 -0.41976205
000020 ae 3b 10 3f 93 c2 8f bf f6 aa 82 3f 2e c8 dd be
       0.56341064 -1.1231254 1.0208423 -0.43316787
000030 00 86 91 bf 28 08 d5 be 8a b7 b5 3f 24 11 3a 3f
       -1.1369019 -0.41607785 1.4196637 0.72682405
000040 50 27 a5 3f 38 96 e7 be a6 71 9e 3f 6e 60 4a bf
       1.2902622 -0.45231795 1.2378433 -0.7905339
000050 8d 43 87 3e 26 44 6c 3c 6b 05 ff be 84 26 9f 3f
       0.26418725 0.014420545 -0.4980882 1.2433629
000060 56 72 45 3e e7 85 3b 3f 6c da 04 3f 4f b0 9c 3f
       0.19281897 0.73251194 0.51895785 1.2241305
000070 ff 7b e0 3e 7d a2 f9 be 23 19 a6 bf 9d e8 a2 3f
       0.43844602 -0.4875678 -1.2976421 1.2727238
000080 63 25 35 bf 29 3f 7c 3f 35 80 18 3f 3b 50 82 3f
       -0.7076017 0.98533875 0.5957063 1.0180734
000090 d5 12 3d 3f e3 47 6f bf f9 d1 34 be 49 34 00 3f
       0.7385686 -0.93469065 -0.17658223 0.5007978
0000a0 62 66 99 3f ce 37 ad bc ea 0d c2 be 07 03 8d bd
       1.198437 -0.021144774 -0.3790124 -0.06885343
0000b0 22 38 8c 3e 08 80 97 3f f2 05 1a bf 55 95 2c 3f
       0.27386576 1.1835947 -0.6016532 0.6741536
0000c0 30 1f f7 be 04 a0 69 3f e1 8e 8a 3e 45 08 11 3f
       -0.48265982 0.9125979 0.27062133 0.56653243
0000d0 96 95 17 be bc 37 52 3f 1a 51 71 be 98 16 b9 be
       -0.14803156 0.82116294 -0.23566094 -0.3615005
0000e0 e6 09 7c bf 56 75 c4 3e 9d 1e 83 bf 56 ed a3 bb
       -0.98452604 0.3837077 -1.0243717 -0.005002658
0000f0 0b bd 8e 3f b1 60 c2 bd 84 24 90 3f 09 6e 49 3f
       1.1151441 -0.09491099 1.1261144 0.78683525

l2.bias f4 [8]
000000 e6 7e 4f 3f 1d f1 8e 3e d6 62 56 3f c1 3e c5 3e
       0.81053007 0.2791833 0.8374456 0.3852444
000010 34 da 44 3d 51 89 a6 3d 7d ea 84 be 6f df 19 3e
       0.048059657 0.0813166 -0.2596015 0.1502664

l3.weight f4 [11, 8]
000000 e6 f4 bc bf 66 d0 53 bd a2 a0 0b 3f 52 e5 f0 3d
       -1.4762237 -0.051712416 0.5454198 0.117624894
000010 dd 64 a8 bf d9 f7 b6 3e 81 0f 1c bf 93 28 2b bf
       -1.3155781 0.35735968 -0.6096116 -0.66858786
000020 9f ec f1 be 63 b2 b2 bf 9e fd 95 be 2f 11 90 3e
       -0.4725084 -1.3960689 -0.29295057 0.2813811
000030 de 59 5c 3f da d3 be bf 48 b2 45 3f 72 27 b4 bf
       0.86074626 -1.4908402 0.7722516 -1.4074538
000040 30 00 58 3e 67 ee 84 bf 5a 02 b4 bf 23 9e 52 3d
       0.21093822 -1.0385255 -1.4063218 0.051420342
000050 07 44 0a bf 2e d3 b0 3e 20 b7 88 3f a2 0d a1 bf
       -0.5401005 0.34536117 1.0680885 -1.2582285
000060 a7 eb 6f 3e d7 98 dd 3d ef dd fa 3e 59 7e a2 bf
       0.23429738 0.108201675 0.48997447 -1.2694808
000070 cf 04 92 bf aa 1d 86 bd fe cf cb bf 18 26 d1 bf
       -1.1407717 -0.06548627 -1.5922849 -1.633975
000080 14 89 e1 bb 7a 30 e0 bf b6 9f 18 3f 85 9d 8e 3e
       -0.006882796 -1.7514794 0.596187 0.27854553
000090 7d f7 6a bf 8b 61 a1 3e c9 7a a1 bd 3e 71 a6 bf
       -0.9178389 0.31519732 -0.078847475 -1.3003309
0000a0 6a e4 19 bf 28 5f b3 bf cf fa 20 bf eb dd fa 3e
       -0.6011416 -1.4013414 -0.62882704 0.48997435
0000b0 77 09 cd 3e 46 12 bd bc d9 cc 7a bf e3 8c 0c 3f
       0.40046284 -0.023080003 -0.9796882 0.54902476
0000c0 e2 b4 d8 3d 54 ef 6a 3e fd 30 80 bf 8e 98 42 bf
       0.10581376 0.22942859 -1.001495 -0.7601403
0000d0 9d 60 af bf 19 d9 aa bf 6e 06 ab bf ca 61 25 3f
       -1.3701359 -1.3347503 -1.3361337 0.6460234
0000e0 a8 f9 b3 bf f9 9b 60 bf 41 47 c4 3e f7 eb 20 3f
       -1.4060564 -0.87737995 0.38335612 0.62860054
0000f0 03 e1 82 3e 83 1f e9 bd b3 37 11 bf 37 c2 82 bf
       0.25562295 -0.113829635 -0.56725615 -1.021552
000100 1f 01 63 3e 6e 78 c4 bf 73 97 a7 bf 67 b7 d6 be
       0.22168396 -1.5349252 -1.3093094 -0.419368
000110 8d ac 75 3e 57 c2 af bf e5 56 a0 3e a5 67 22 3f
       0.23991604 -1.3731183 0.31316295 0.634394
000120 db 54 98 bf b1 32 3b 3f 0d b7 f9 3e d1 6e 3a bf
       -1.1900896 0.73124224 0.4877247 -0.7282534
000130 90 5b 72 3e 57 34 ec bf d7 69 16 bf fc dd 1c bf
       0.23667741 -1.8453473 -0.5875525 -0.6127622
000140 31 b0 dc 3e 8d 8b ba bf be f4 c4 be 38 c0 90 bf
       0.43103173 -1.4573838 -0.38467973 -1.130866
000150 79 91 8e bf 90 34 d0 3e f9 b3 b7 be ec 95 8a 3e
       -1.1138145 0.40665102 -0.35879496 0.27067506

l3.bias f4 [11]
000000 bd 49 1a be 36 3c 84 3e dc ea 90 3e b2 6c e9 3e
       -0.15067191 0.25827187 0.28304183 0.4559074
000010 1f e9 5b be 07 69 5b be 3b 82 10 3f 02 dd 7b be
       -0.21475647 -0.21426784 0.56448716 -0.24596027
000020 b7 21 95 3c 6f fa 94 3e 01 8a 27 3e
       0.018204553 0.29097316 0.16361238
